Models/model1_food.pth (torch, 95412 bytes, 14 tensors)

conv_block1.0.weight f4 [20, 3, 3, 3]
0.1489829 0.17731571 0.068370804 0.016582657 -0.13504387 0.07754226 -0.09112927 0.11099581
0.16811581 -0.08636352 0.07447844 -0.07388066 -0.24046847 0.035856944 0.08971389 -0.041967753
-0.015984418 0.0040592263 -0.17702122 -0.2753144 -0.16210192 -0.22871532 -0.2151609 -0.099231
-0.17013952 -0.10557938 -0.08281551 -0.17884791 -0.36698613 -0.3502354 0.009022237 -0.09118143
0.102005705 -0.034847837 0.13695058 0.20155872 -0.25616544 -0.17116164 -0.0033275245 -0.28090438
0.03399804 0.092860036 0.07848097 -0.0060714274 0.061885647 -0.30156973 -0.31573957 -0.011314939
-0.00048955414 -0.115217425 -0.044453055 0.22331648 0.20030586 0.12653899 -0.23349127 -0.51082003
-0.49302733 -0.4155247 -0.17249611 -0.21045488 -0.5034246 -0.6020769 -0.52723163 0.13692309
-0.08805896 0.0635844 0.14273775 0.15219285 0.18366306 -0.2736376 -0.30929127 -0.27940226
0.115083046 0.01069127 -0.076034196 0.042643365 0.07534309 0.07380753 -0.3648915 -0.37293628
-0.0098477425 0.23636545 0.10547583 0.15767069 0.21324098 0.059362184 -0.11726643 0.22602643
0.2697199 -0.11228181 -0.10042261 -0.32986414 -0.10258689 -0.3150901 -0.32584962 -0.082606144
-0.2701174 -0.062274065 0.11604506 0.06587532 0.014323452 0.092080474 -0.20661582 -0.06148005
-0.05088328 0.14808658 0.078623354 0.21518892 -0.13780053 0.06375613 2.8035418e-05 0.039030492
0.17395498 0.110688694 0.18039255 0.06728329 0.06659745 -0.083730705 -0.27862945 -0.029520117
-0.16164792 -0.0874009 -0.10748651 -0.1491323 0.11800173 0.124994956 0.12179568 0.09492748
0.041999504 -0.16110554 -0.053411376 -0.2164458 0.1692445 -0.04597164 0.11984832 -0.19032125
0.17039704 0.3239946 -0.1466271 0.20208669 -0.07529987 -0.30675563 -0.49882933 -0.56094813
-0.17100234 0.08199212 0.28451097 -0.12249214 0.2020103 0.20199667 -0.32892254 -0.27183473
-0.35964516 -0.12159518 -0.20158674 -0.14454019 -0.20642427 -0.10907378 -0.092056125 -0.101044826
-0.5671067 -0.3866329 -0.14582327 0.00902322 0.2417036 0.20637825 -0.0416008 -0.075762205
0.17166416 0.19722395 0.07548742 -0.15874901 -0.10611084 0.024459152 0.06634071 -0.039931085
-0.11620306 -0.060192216 0.087450966 -0.062541194 -0.0025587543 0.18329385 -0.15515776 0.2157458
0.029080134 0.021495199 0.20110248 0.19843033 0.00177795 0.034292914 -0.1794717 -0.1732119
0.04552695 0.009909881 0.019348335 -0.1020306 -0.2614224 -0.14357756 0.25724077 0.15236314
0.22024861 0.11899606 -0.104011916 0.24930415 0.09656389 -0.17582321 0.2126528 -0.3457585
-0.2956756 -0.15405335 -0.2645674 -0.22022161 -0.45351434 -0.32901242 -0.22718628 -0.11078218
-0.07044689 0.11860569 0.14612253 0.20263673 -0.061810207 0.11091552 0.14680922 0.13680583
0.11047004 0.12268672 0.118198924 -0.14367564 0.16269706 0.1509673 0.12035993 0.05102911
-0.1851598 -0.053830687 0.07998035 -0.107816584 0.16479607 -0.008994298 -0.16323596 0.0058089024
-0.076224215 -0.089861654 -0.04424267 0.16865723 -0.14398055 -0.12566534 -0.11735397 0.03566066
0.007937269 -0.14866877 -0.0104027875 -0.05032973 0.26156464 0.15746142 0.08128759 -0.03922918
00000000: f98e 183e 4092 353e fe05 8c3d 5ad8 873c
00000010: f148 0abe 7ace 9e3d fca1 babd c551 e33d
00000020: 8d26 2c3e 5bdf b0bd 2788 983d be4e 97bd
00000030: 5e3d 76be bbde 123d eabb b73d 61e6 2bbd
00000040: c1f1 82bc 4203 853b 0d45 35be 02f6 8cbe
00000050: 0cfe 25be 5934 6abe 2453 5cbe 9f39 cbbd
00000060: 0e39 2ebe 013a d8bd 2e9b a9bd e823 37be
00000070: 9be5 bbbe 0e52 b3be 01d2 133c 54bd babd
00000080: 5ee8 d03d 9bbc 0ebd c63c 0c3e 6965 4e3e
00000090: 1e28 83be ff44 2fbe 9912 5abb b3d2 8fbe
000000a0: 8741 0b3d 672d be3d a1ba a03d d3f2 c6bb
000000b0: ce7b 7d3d 5967 9abe 9ea8 a1be 4b62 39bc
000000c0: 6c55 00ba 1df7 ebbd 6814 36bd 13ad 643e
000000d0: fb1c 4d3e 7093 013e 5618 6fbe 1ac5 02bf
000000e0: 146e fcbe a7bf d4be d2a2 30be 7c81 57be
000000f0: 6fe0 00bf b621 1abf a7f8 06bf 9135 0c3e
00000100: 4258 b4bd 8a38 823d d829 123e 71d8 1b3e
00000110: 2b12 3c3e 3a1a 8cbe 6d5b 9ebe d00d 8fbe
00000120: a9b0 eb3d 702a 2f3c d1b7 9bbd cfaa 2e3d
00000130: 7a4d 9a3d 6728 973d 0fd3 babe 81f1 bebe
00000140: 6d58 21bc c909 723e b603 d83d 6d74 213e
00000150: d85b 5a3e c325 733d 6229 f0bd 7973 673e
00000160: ba18 8a3e 01f4 e5bd 5faa cdbd f4e3 a8be
00000170: 1319 d2bd 7d53 a1be c3d5 a6be 692d a9bd
00000180: d44c 8abe 1713 7fbd 08a9 ed3d a4e9 863d
00000190: e9ac 6a3c b094 bc3d 1993 53be 81d2 7bbd
000001a0: fc6a 50bd 02a4 173e 4805 a13d 7c5a 5c3e
000001b0: 951b 0dbe 9392 823d 9a2d eb37 70de 1f3d
000001c0: 4121 323e c1b0 e23d d3b8 383e d2cb 893d
000001d0: 3e64 883d 017b abbd 85a8 8ebe 2cd4 f1bc
000001e0: 0887 25be 3eff b2bd e321 dcbd 23b6 18be
000001f0: e4aa f13d 5bfd ff3d 0370 f93d 5769 c23d
00000200: ac07 2c3d daf8 24be e3c5 5abd f8a3 5dbe
00000210: 6e4e 2d3e c24c 3cbd 0973 f53d 93e3 42be
00000220: 907c 2e3e 9fe2 a53e 6a25 16be d0ef 4e3e
00000230: d136 9abd 130f 9dbe 8f66 ffbe 4c9a 0fbf
00000240: 3d1b 2fbe 7ceb a73d 6cab 913e 29dd fabd
00000250: cadb 4e3e 37d8 4e3e 8968 a8be ec2d 8bbe
00000260: 6923 b8be e506 f9bd c16c 4ebe 5802 14be
00000270: e260 53be 1362 dfbd ec87 bcbd 97f0 cebd
00000280: e82d 11bf bff4 c5be b252 15be 21d6 133c
00000290: 2681 773e d254 533e 9a65 2abd 3729 9bbd
000002a0: bbc8 2f3e 13f5 493e 2699 9a3d 1a8f 22be
000002b0: a450 d9bd 8f5e c83c a3dd 873d c78e 23bd
000002c0: dffb edbd 1d8c 76bd 7e19 b33d 9915 80bd
000002d0: c6b0 27bb 62b1 3b3e ade1 1ebe 78ec 5c3e
000002e0: 7639 ee3c b316 b03c cfed 4d3e 5231 4b3e
000002f0: 1a0a e93a ba76 0c3d 6ec7 37be 765e 31be
00000300: 787a 3a3d 0e5d 223c 6680 9e3c 6bf5 d0bd
00000310: 28d9 85be ff05 13be 10b5 833e 1505 1c3e
00000320: da88 613e 35b4 f33d 3304 d5bd 9649 7f3e
00000330: 4ac3 c53d 000b 34be a8c1 593e 4207 b1be
00000340: cb62 97be 29c0 1dbe 6175 87be c681 61be
00000350: 0833 e8be 5174 a8be 85a3 68be c5e1 e2bd
00000360: 7646 90bd 8ae7 f23d 25a1 153e 0180 4f3e
00000370: b32c 7dbd ad27 e33d 2855 163e d416 0c3e
00000380: 1e3e e23d 2d43 fb3d 4712 f23d b51f 13be
00000390: 0f9a 263e 2c97 1a3e 447f f63d e603 513d
000003a0: 889a 3dbe 917d 5cbd bdcc a33d f1ce dcbd
000003b0: 4dc0 283e d25c 13bc 5427 27be 9b58 be3b
000003c0: 711b 9cbd 6309 b8bd cd37 35bd 7bb4 2c3e
000003d0: a36f 13be 6aae 00be 4757 f0bd ea10 123d
000003e0: 520b 023c a03c 18be 7470 2abc 8c26 4ebd
000003f0: cdeb 853e 913d 213e 1c7a a63d c7ae 20bd

conv_block1.0.bias f4 [20]
-0.17094229 0.04380078 0.12184791 -0.006228495 -0.19921134 -0.10288022 -0.2629364 0.101392366
-0.31335372 0.0044803526 0.057389133 0.042390205 0.09826025 0.08227403 -0.047275025 0.14397673
-0.08474595 0.10087852 -0.07819263 -0.1981439
00000000: 7f0b 2fbe 7268 333d 668b f93d 6718 ccbb
00000010: 0ffe 4bbe ddb2 d2bd 9a9f 86be cda6 cf3d
00000020: e66f a0be eccf 923b de10 6b3d 5aa1 2d3d
00000030: ac3c c93d 497f a83d 75a3 41bd a36e 133e
00000040: 498f adbd 6699 ce3d 7523 a0bd 3ce6 4abe

conv_block1.2.weight f4 [20, 20, 3, 3]
-0.045596797 -0.074663624 0.05141697 -0.044745564 -0.07449936 -0.041879777 0.06512827 -0.08192137
-0.043898247 0.12612805 0.08532291 0.0385556 0.19978821 0.22643259 -0.0147907315 -0.22538015
-0.29424453 -0.23673585 -0.71503735 -0.81658083 -0.7463654 -0.13083175 -0.17674984 -0.15164965
0.28880695 0.17488413 0.18257885 -0.04740127 -0.173195 -0.23621657 0.002770634 -0.007584725
-0.14122434 -0.047182657 -0.12489067 -0.08377884 -0.22103307 -0.14158092 -0.059442032 0.027762612
0.06101415 0.053849924 0.048448607 -0.040204905 0.013742341 0.113530695 0.042163815 -0.024299841
-0.06538508 -0.051304705 -0.013724163 0.030799827 0.066331245 -0.15067597 -0.15564433 -0.1359738
-0.21568768 -0.030968636 -0.059353918 -0.0068740067 -0.023335923 0.02686241 0.035527766 -0.070746034
-0.10780261 -0.06628657 0.006192173 -0.09295253 -0.024773471 0.008949034 0.01962658 0.11740683
-0.38124248 -0.39995316 -0.29490942 -0.24249084 -0.13295971 -0.09047081 0.001053747 -0.0017573327
-0.0012727219 -0.079477206 -0.027467137 -0.06549939 -0.1030487 -0.09706304 -0.16708899 0.061036874
0.10037469 -0.14195387 0.060663685 0.08848421 -0.028117664 -0.039541855 -0.06437111 -0.052384038
-0.20395349 -0.2088019 -0.08196261 0.15601072 0.0071521103 0.069619775 0.13921183 0.16569172
0.14070474 0.20460287 0.14474516 0.13881537 -0.110774 -0.060223322 0.0007136062 -0.06434521
-0.08066966 -0.20224653 0.06619116 -0.02759919 -0.033852186 0.12886687 0.069685586 0.106205076
-0.13457339 -0.025202801 -0.054267716 0.038900282 -0.11177054 0.06093381 -0.08077322 -0.13675825
-0.10624264 0.009822265 0.0042861337 0.060698986 0.19559342 0.17118677 0.06032901 0.023580542
0.10064007 -0.07009519 0.11587533 -0.033091944 -0.12437077 -0.041918233 -0.043196782 -0.014729622
0.06076562 0.018100794 -0.09194216 0.08838918 0.06257104 -0.04020993 -0.18236932 -0.08561736
-0.040424474 0.023448622 0.050705545 -0.007983779 -0.14152795 -0.28720945 -0.19565642 -0.14867061
-0.10211949 -0.055156205 -0.10963391 -0.1587534 -0.09267766 0.041011263 0.07722598 0.08849808
-0.010041208 -0.07447015 0.023232639 0.104198135 -0.016086401 0.052442227 0.12029844 0.077395186
0.16087581 -0.00030720021 -0.030085858 0.078745365 -0.008053889 0.1454311 0.13157223 -0.11262164
-0.18053788 -0.070336714 -0.18234551 -0.37662935 -0.34263057 -0.15600497 -0.07252012 -0.025728557
-0.08033572 0.07398281 0.0059736134 -0.053044457 -0.00329121 0.00214124 0.0769073 -0.04260542
-0.009795373 0.1900965 0.06431348 0.08646682 -0.043452844 0.024400761 -0.019008767 -0.021647528
0.011162816 -0.08158496 -0.10751029 -0.18846121 -0.28454903 -0.1846466 -0.2895759 -0.2708979
-0.0527935 -0.065011434 0.073589616 -0.11945772 -0.08990977 -0.05315877 0.10246539 0.1323245
0.056996237 0.1833661 0.17104118 0.114164755 0.4164785 0.27799538 0.44227323 -0.03298632
0.12666242 0.01221283 -0.09056691 -0.08751559 -0.082099795 -0.11958783 -0.1345177 -0.04525515
-0.114370316 -0.08157385 -0.03675377 0.025911905 0.045192696 0.12969507 0.13383327 0.19249918
0.20816375 -0.07841914 -0.10971769 -0.08504572 -0.0331031 0.04716559 0.010978759 0.007211925
00000000: b5c3 3abd 3ee9 98bd 9a9a 523d 2047 37bd
00000010: 1f93 98bd 218a 2bbd f861 853d 64c6 a7bd
00000020: a6ce 33bd b627 013e c7bd ae3d 7aec 1d3d
00000030: 4895 4c3e f2dd 673e d354 72bc 0eca 66be
00000040: 38a7 96be e26a 72be b00c 37bf 710b 51bf
00000050: ce11 3fbf c2f8 05be e9fd 34be 0c4a 1bbe
00000060: 81de 933e d314 333e f3f5 3a3e d627 42bd
00000070: 085a 31be c2e2 71be 8693 353b 4989 f8bb
00000080: 1d9d 10be 9a42 41bd aec6 ffbd 3e94 abbd
00000090: 7e56 62be 97fa 10be 7d79 73bd 6b6e e33c
000000a0: f9e9 793d bd91 5c3d 0c72 463d e6ad 24bd
000000b0: 8e27 613c c882 e83d f7b3 2c3d 7610 c7bc
000000c0: 9de8 85bd e224 52bd 50db 60bc eb4f fc3c
000000d0: add8 873d cd4a 1abe 3a61 1fbe b73c 0bbe
000000e0: 3bdd 5cbe f0b1 fdbc 181d 73bd 593f e1bb
000000f0: fa2a bfbc 8f0e dc3c 9085 113d 4ce3 90bd
00000100: 9dc7 dcbd 41c1 87bd b6e7 ca3b e55d bebd
00000110: bcf1 cabc f89e 123c ecc7 a03c fe72 f03d
00000120: 3732 c3be a9c6 ccbe 5efe 96be 854f 78be
00000130: 9726 08be c348 b9bd e21d 8a3a 4d56 e6ba
00000140: 76d1 a6ba f2c4 a2bd c302 e1bc 8b24 86bd
00000150: 320b d3bd fdc8 c6bd 6019 2bbe cd01 7a3d
00000160: 3f91 cd3d 5b5c 11be 7c7a 783d 3637 b53d
00000170: 0457 e6bc a4f6 21bd 00d5 83bd a590 56bd
00000180: 2fd9 50be 2ad0 55be 03dc a7bd 46c1 1f3e
00000190: 405c ea3b d094 8e3d 8c8d 0e3e 17ab 293e
000001a0: e714 103e 6a83 513e 1338 143e 9e25 0e3e
000001b0: 7bdd e2bd bbac 76bd 4d11 3b3a 6cc7 83bd
000001c0: 2236 a5bd b719 4fbe 3b8f 873d b217 e2bc
000001d0: 97a8 0abd adf5 033e 51b7 8e3d 0c82 d93d
000001e0: 9bcd 09be 1b76 cebc d347 5ebd e755 1f3d
000001f0: f4e7 e4bd bb95 793d 6e6c a5bd 5b0a 0cbe
00000200: be95 d9bd 91ed 203c b272 8c3b 809f 783d
00000210: a449 483e 964b 2f3e 8d1b 773d fb2b c13c
00000220: 621c ce3d 118e 8fbd 0c50 ed3d 6b8b 07bd
00000230: 1ab6 febd 74b2 2bbd 1cef 30bd 8354 71bc
00000240: 5fe5 783d 1e48 943c 2c4c bcbd 6305 b53d
00000250: 3f25 803d 2bb3 24bd 06bf 3abe 2858 afbd
00000260: 2294 25bd 5317 c03c 9eb0 4f3d 65ce 02bc
00000270: b4ec 10be 1e0d 93be 285a 48be 1c3d 18be
00000280: 0624 d1bd 79eb 61bd be87 e0bd 4090 22be
00000290: c9cd bdbd 6dfb 273d a828 9e3d 7b3e b53d
000002a0: e183 24bc ce83 98bd 6052 be3c d565 d53d
000002b0: a1c7 83bc a9cd 563d 075f f63d 5e81 9e3d
000002c0: a1bc 243e b70f a1b9 9e76 f6bc 4045 a13d
000002d0: 75f4 03bc e4eb 143e dfba 063e 2da6 e6bd
000002e0: ecde 38be b20c 90bd c8b8 3abe 90d5 c0be
000002f0: 466d afbe c4bf 1fbe 6e85 94bd b2c4 d2bc
00000300: 0e87 a4bd 4d84 973d 4dbe c33b 2545 59bd
00000310: 57b1 57bb 0c54 0c3b 9381 9d3d 0583 2ebd
00000320: c67c 20bc a8a8 423e c9b6 833d 8415 b13d
00000330: 9cfb 31bd 1be4 c73c 46b8 9bbc 2856 b1bc
00000340: 3ee4 363c 0416 a7bd 5b2e dcbd fafb 40be
00000350: 69b0 91be 0014 3dbe 4b43 94be 21b3 8abe
00000360: ff3d 58bd b724 85bd 27b6 963d 40a6 f4bd
00000370: 9d22 b8bd 03bd 59bd 60d9 d13d 1380 073e
00000380: e374 693d 53c4 3b3e 6b25 2f3e 36cf e93d
00000390: ac3c d53e 6955 8e3e a371 e23e aa1c 07bd
000003a0: cbb3 013e 5218 483c 257b b9bd 603b b3bd
000003b0: f023 a8bd 77ea f4bd 02bf 09be 775d 39bd
000003c0: fc3a eabd 3110 a7bd 1f8b 16bd 3445 d43c
000003d0: fa1b 393d c9ce 043e 970b 093e 811e 453e
000003e0: e128 553e 379a a0bd abb3 e0bd 732c aebd
000003f0: 1e97 07bd b530 413d 41e0 333c 0352 ec3b

conv_block1.2.bias f4 [20]
-0.02381221 -0.02679648 -0.033485837 -0.03858635 -0.08957304 0.038997084 -0.09132549 0.05901562
-0.106307015 -0.06826224 -0.03543405 -0.12536353 0.05172764 0.051157005 0.06707634 -0.08568667
-0.060313817 -0.08140427 -0.2312726 -0.06474945
00000000: d311 c3bc 4b84 dbbc 7228 09bd b80c 1ebd
00000010: 1272 b7bd 68bb 1f3d dc08 bbbd 5dba 713d
00000020: 7eb7 d9bd 13cd 8bbd 4b23 11bd 4c5f 00be
00000030: 5de0 533d 028a 513d 525f 893d 7e7c afbd
00000040: 9f0b 77bd 48b7 a6bd b9d2 6cbe 5c9b 84bd

conv_block2.0.weight f4 [20, 20, 3, 3]
-0.058451425 -0.18472391 -0.22727342 0.06351788 0.0800066 0.07446529 -0.13570501 0.044775467
0.049445078 -0.06673781 -0.17539394 -0.15967235 -0.045983106 -0.06734283 -0.19522579 -0.19612035
-0.20263387 -0.1585853 -0.13527851 -0.17074521 -0.12282112 0.04063748 0.03715947 -0.104576014
0.09166554 0.051384423 0.060760677 -0.13181639 -0.23584504 -0.29848152 -0.02876398 -0.077808484
-0.06433973 0.0062024365 0.102857344 0.10351741 0.03227653 -0.044484783 -0.04526563 0.019261364
-0.026673585 0.011841897 0.05463266 -0.033706773 -0.0007378874 0.16843632 0.1586834 0.2428939
-0.02539018 0.13398363 0.17486933 0.009793732 0.1308671 0.06889753 -0.2512787 -0.30362388
-0.23419361 0.058459897 0.1181645 0.105616845 -0.027428523 0.18732199 0.10799961 0.093886904
0.08284349 0.16173144 0.10299634 0.08039053 -0.020003166 -0.06956555 -0.06227259 -0.13340853
0.011096725 0.03141827 -0.042559143 0.020172253 -0.040439926 -0.010437431 0.02965429 0.06704673
-0.0066536763 -0.019147117 -0.030179206 0.0065225437 -0.028864887 -0.011687917 -0.099454336 0.11185303
0.021442782 0.058542006 -0.16276711 -0.08327299 -0.13263166 0.0147142755 0.071573175 0.04968014
0.10315246 0.13803251 0.08976293 -0.18648323 -0.13820054 -0.122628175 -0.13071665 -0.08371644
-0.08073878 -0.038058 -0.10081244 -0.026913827 0.17787476 0.14033966 0.18069124 -0.05402829
-0.04402208 -0.0043560313 -0.19688068 -0.20789555 -0.19991556 -0.078258865 -0.01795192 -0.07813616
0.11543948 -0.12254012 -0.054087833 0.0044280025 -0.19749367 -0.06716335 0.13039076 0.097232774
0.050720293 0.06778579 0.045108773 0.033721935 0.03419684 0.015727 -0.072581016 -0.15046154
-0.209355 -0.1337243 0.17768517 0.2234803 0.19345377 0.20634462 0.21673867 0.11254648
0.021216938 0.090885855 0.013875824 0.03636103 0.026468148 0.030811874 -0.053020336 0.08150517
0.025422646 -0.07842001 -0.19684966 -0.14219955 0.06805131 0.11581438 0.049293526 -0.0042482857
-0.011831269 0.034110043 0.05863639 0.07761466 0.19734949 -0.04842067 -0.11818684 -0.14413227
-0.19685897 -0.059759326 -0.13903825 0.16347228 -0.032204896 -0.10897021 0.15698026 0.12228091
0.022511395 0.084492825 0.019155363 0.13210134 -0.13023378 0.020827487 -0.030449651 -0.09650962
-0.08628008 -0.12832688 -0.19315942 -0.2794893 -0.38932478 0.07334001 0.018321555 0.06920006
0.13994694 0.11283195 -0.013787373 0.08989108 0.18202835 0.004316826 -0.08305623 0.011274339
-0.071237415 -0.039306913 -0.058984574 0.02034761 -0.18781488 -0.036338184 -0.1197736 -0.008819712
0.07649536 0.1433466 -0.09758321 -0.08777148 0.099293426 -0.11787693 0.028434468 0.12566136
-0.07043479 -0.10583747 -0.008371821 -0.017762922 0.05263241 -0.03732538 -0.000358435 -0.037367985
0.03762097 -0.20290683 -0.24758135 -0.12712355 0.05960788 0.08864211 0.08141139 -0.07285544
-0.15992498 0.10135881 -0.28570876 -0.21236703 -0.28796676 -0.046999693 -0.022061743 -0.09951026
-0.1608916 -0.20274489 -0.08350912 0.029732464 0.06630977 -0.059484348 0.04448396 0.009640487
-0.046494555 0.088296674 0.024969915 -0.016027119 -0.062013138 -0.14018874 -0.04580681 -0.1652353
00000000: c36a 6fbd 4428 3dbe 5dba 68be aa15 823d
00000010: 80da a33d 4281 983d 41f6 0abe 7b66 373d
00000020: ec86 4a3d d5ad 88bd 789a 33be 2681 23be
00000030: c858 3cbd 0aeb 89bd 45e9 47be c6d3 48be
00000040: 417f 4fbe 2f64 22be 7386 0abe d5d7 2ebe
00000050: a489 fbbd 7c73 263d 8734 183d f32b d6bd
00000060: 25bb bb3d 7978 523d 30e0 783d e0fa 06be
00000070: 5d81 71be 92d2 98be 70a2 ebbc 0e5a 9fbd
00000080: 8cc4 83bd cf3d cb3b dfa6 d23d f000 d43d
00000090: 6534 043d ad35 36bd 7468 39bd 02ca 9d3c
000000a0: 9082 dabc 8404 423c 7fc6 5f3d 1d10 0abd
000000b0: c96e 41ba 927a 2c3e e77d 223e 2eb9 783e
000000c0: 11ff cfbc 0133 093e f210 333e e475 203c
000000d0: 0602 063e 261a 8d3d 9aa7 80be 9774 9bbe
000000e0: 73d0 6fbe a573 6f3d 3b00 f23d a54d d83d
000000f0: c8b1 e0bc 56d1 3f3e e62e dd3d c747 c03d
00000100: d9a9 a93d ed9c 253e bfef d23d caa3 a43d
00000110: aedd a3bc 6278 8ebd 8b11 7fbd 3f9c 08be
00000120: 0acf 353c 72b0 003d 7f52 2ebd 4840 a53c
00000130: 56a4 25bd c201 2bbc 8eed f23c cc4f 893d
00000140: 1507 dabb 6ada 9cbc 623a f7bc 10bb d53b
00000150: 0e76 ecbc ad7e 3fbc b7ae cbbd 3413 e53d
00000160: c6a8 af3c bec9 6f3d 6cac 26be 088b aabd
00000170: 98d0 07be 2514 713c f594 923d 677d 4b3d
00000180: 9941 d33d 6558 0d3e a1d5 b73d 76f5 3ebe
00000190: 7184 0dbe 7b24 fbbd 96da 05be 8673 abbd
000001a0: 605a a5bd b5e2 1bbd c176 cebd 637a dcbc
000001b0: cd24 363e 33b5 0f3e 2007 393e c54c 5dbd
000001c0: 7f50 34bd 0abd 8ebb 179b 49be 92e2 54be
000001d0: aab6 4cbe 2f46 a0bd e80f 93bc da05 a0bd
000001e0: 896b ec3d 50f6 fabd 348b 5dbd c718 913b
000001f0: c83b 4abe f08c 89bd 2885 053e fa21 c73d
00000200: 15c0 4f3d 47d3 8a3d fac3 383d 0320 0a3d
00000210: fc11 0c3d e9d5 803c 5ba5 94bd 9712 1abe
00000220: 2861 56be 06ef 08be 1af3 353e 05d8 643e
00000230: bf18 463e 014c 533e bef0 5d3e c57e e63d
00000240: 25cf ad3c 5d22 ba3d 6d57 633c 4eef 143d
00000250: bbd3 d83c 2f69 fc3c da2b 59bd 2fec a63d
00000260: 2743 d03c ac9a a0bd f592 49be c29c 11be
00000270: 7c5e 8b3d 1730 ed3d 02e8 493d 3435 8bbb
00000280: f0d7 41bc f9b6 0b3d b62c 703d 6ff4 9e3d
00000290: fc15 4a3e c154 46bd f10b f2bd 6997 13be
000002a0: 6695 49be 32c6 74bd 0b60 0ebe 4765 273e
000002b0: 48e9 03bd c62b dfbd 6fbf 203e 6a6e fa3d
000002c0: d169 b83c 930a ad3d b5eb 9c3c 9345 073e
000002d0: 015c 05be 689e aa3c 8c71 f9bc d6a6 c5bd
000002e0: 9cb3 b0bd 1f68 03be 95cb 45be 3919 8fbe
000002f0: 9455 c7be 4a33 963d 1617 963c c3b8 8d3d
00000300: 404e 0f3e 7014 e73d 6fe4 61bc d118 b83d
00000310: a465 3a3e 2974 8d3b 6219 aabd 01b8 383c
00000320: ece4 91bd 4900 21bd cf99 71bd 08b0 a63c
00000330: 8b52 40be 59d7 14bd dc4b f5bd 8e80 10bc
00000340: 99a9 9c3d 73c9 123e b5d9 c7bd 89c1 b3bd
00000350: 5a5a cb3d 7669 f1bd 67ef e83c 5fad 003e
00000360: 1d40 90bd 51c1 d8bd f629 09bc 8c83 91bc
00000370: 1595 573d 7fe2 18bd 55ec bbb9 2c0f 19bd
00000380: 7218 1a3d cfc6 4fbe f785 7dbe ad2c 02be
00000390: 6427 743d ff89 b53d 04bb a63d 3c35 95bd
000003a0: 60c3 23be 3595 cf3d 6b48 92be be76 59be
000003b0: 6170 93be c082 40bd d4ba b4bc 09cc cbbd
000003c0: c5c0 24be 5b9c 4fbe d406 abbd 7f91 f33c
000003d0: 6bcd 873d dca5 73bd d034 363d 22f3 1d3c
000003e0: 1371 3ebd e3d4 b43d b58d cc3c 4e4b 83bc
000003f0: 7d01 7ebd a38d 0fbe ec9f 3bbd 7133 29be

conv_block2.0.bias f4 [20]
0.004090818 0.18718377 -0.051479645 0.084901996 -0.043305255 0.13650791 -0.18375526 0.11633568
-0.12182854 -0.15152368 -0.12079578 -0.07557826 0.1087875 -0.04554768 -0.09473109 0.11285366
-0.084355466 -0.012679816 0.07329806 -0.14311725
00000000: 450c 863b 1aad 3f3e 52dc 52bd 19e1 ad3d
00000010: da60 31bd bbc8 0b3e 572a 3cbe 6741 ee3d
00000020: 3e81 f9bd 0629 1bbe c763 f7bd c6c8 9abd
00000030: fbcb de3d 3490 3abd 6002 c2bd d21f e73d
00000040: 8fc2 acbd 01bf 4fbc 4b1d 963d 548d 12be

conv_block2.2.weight f4 [20, 20, 3, 3]
0.0017524069 -0.008914282 0.06328665 -0.22049452 -0.1312122 -0.13385218 0.0029556637 -0.043992896
0.052987758 -0.028085325 -0.0056825327 0.05794099 0.08187282 0.14774118 0.058389984 -0.1740598
-0.077102296 -0.19511718 0.082719795 -0.013640776 0.07332324 0.032551665 0.017342726 -0.004195234
-0.034867905 -0.014460409 -0.056364685 -0.22494623 -0.16968748 -0.018962001 0.023430033 0.17266527
0.21244207 -0.12126868 -0.03783594 -0.0065188543 -0.019123938 0.00022114992 0.005937014 0.038162436
0.053750586 -0.02008008 0.06489445 -0.052211635 -0.061873302 -0.05845674 0.09075804 -0.025312338
-0.0062133227 0.26344684 0.07415309 -0.13360533 0.10885463 0.031489596 0.043443974 0.05268273
0.0052851127 0.008961174 0.067222215 -0.0030311926 -0.21272342 -0.08815603 -0.035826128 -0.09460995
0.03929736 0.007926069 -0.012173355 0.1317539 0.10442275 -0.1317461 -0.010481969 0.009526873
-0.037229046 -0.038271222 0.02782779 -0.14347726 -0.05450096 0.08377847 0.04507165 0.014601972
-0.0035539242 0.05108367 0.03139409 0.063025415 -0.034326896 0.07014271 0.07851745 0.0037288477
0.13092078 0.30426022 0.02138107 0.084173195 -0.019903991 0.0017646677 -0.016341506 -0.03236199
0.0042997166 -0.009994689 0.0014356022 0.10059318 0.06441209 -0.06870585 -0.012473523 -0.105297744
-0.14088334 -0.17184442 -0.2262969 -0.17478675 -0.01646669 0.1272223 0.2126665 -0.020410333
0.09084083 0.029229403 0.018270178 0.18413617 0.16731037 0.088283025 -0.29131743 0.063219674
-0.0527751 -0.17772473 -0.08100616 -0.18467194 -0.2137395 -0.16004032 0.033425692 0.021384664
0.08230367 -0.13366744 -0.081688605 -0.11623742 -0.0817286 -0.003167507 -0.102426104 -0.0050080502
0.09923836 0.033166785 -0.15614119 -0.06306819 -0.049972005 -0.09347253 -0.061906636 -0.13389775
-0.053355366 -0.05279065 0.09076225 0.01614903 0.053604234 -0.075215235 -0.045953546 0.055219848
0.046441425 -0.15357529 0.005063465 0.059875727 -0.025008513 -0.021530623 -0.19467176 -0.07521085
0.028633218 0.066891305 -0.1327778 -0.09193513 -0.041340575 -0.10875387 -0.110236086 -0.014435586
-0.095999375 -0.11049884 -0.079785004 -0.11663089 -0.12464856 -0.14961818 0.02608363 0.023152022
0.039943352 0.25385946 0.005488179 -0.026498778 -0.08793291 -0.10124471 -0.07729317 -0.0043709106
-0.037940774 -0.05389892 0.09052335 0.09609927 0.08231311 0.05347361 -0.025924511 0.04108394
0.028179549 0.011673898 0.057993293 -0.12497115 -0.18757652 -0.22454715 -0.17110765 -0.20808752
-0.14532788 -0.0008121994 -0.14941369 -0.17205857 -0.094506234 -0.12276555 -0.17290434 0.017208729
0.07192829 0.026319815 -0.13491908 -0.1119591 -0.12372849 -0.08644398 -0.029176272 0.054118887
0.11879065 0.12618016 0.0019301758 0.08846603 -0.067789495 -0.06020534 0.08370588 -0.016107121
-0.045099717 -0.0059870724 0.06517598 0.10631312 -0.012262938 0.1284857 0.08488479 -0.10032719
-0.20904686 -0.117023304 0.16541529 0.0061113914 0.05914167 0.08417881 0.07168945 -0.04388904
-0.047322072 -0.17259677 -0.26029536 0.12922767 0.12748064 0.16187376 0.01598995 0.042528786
0.004942769 -0.18413138 -0.25154138 -0.13319829 0.04173652 -0.009277362 -0.067987226 -0.00068798015
00000000: 05b1 e53a 350d 12bc 6e9c 813d 51c9 61be
00000010: 7e5c 06be 8c10 09be cfb3 413b e531 34bd
00000020: b109 593d 3213 e6bc 8a34 babb 8853 6d3d
00000030: f0ac a73d 7749 173e 562a 6f3d bb3c 32be
00000040: cfe7 9dbd cccc 47be ff68 a93d 907d 5fbc
00000050: 7f2a 963d e554 053d 5512 8e3c 2c78 89bb
00000060: a6d1 0ebd 5aeb 6cbc a8de 66bd 4e58 66be
00000070: 8ec2 2dbe 3356 9bbc 57f0 bf3c 2acf 303e
00000080: 6a8a 593e b75b f8bd dcf9 1abd 1d9c d5bb
00000090: cea9 9cbc 7be4 6739 488b c23b 3750 1c3d
000000a0: 9329 5c3d fb7e a4bc 62e7 843d dedb 55bd
000000b0: dc6e 7dbd 5670 6fbd 5adf b93d d25b cfbc
000000c0: 2199 cbbb 81e2 863e 93dd 973d d6cf 08be
000000d0: 2def de3d 3cfb 003d 4ff2 313d d9c9 573d
000000e0: bd2e ad3b e3d1 123c cdab 893d f9a6 46bb
000000f0: 2bd4 59be 268b b4bd 6bbe 12bd ddc2 c1bd
00000100: 45f6 203d 58dc 013c c072 47bc 7fea 063e
00000110: 98db d53d 73e8 06be 91bc 2bbc 9a16 1c3c
00000120: 7c7d 18bd 49c2 1cbd 1bf7 e33c b4eb 12be
00000130: 663c 5fbd 0c94 ab3d 0d9d 383d 1c3d 6f3c
00000140: f4e8 68bb 1c3d 513d 1797 003d 7813 813d
00000150: 5c9a 0cbd fba6 8f3d c2cd a03d af5f 743b
00000160: 1910 063e ffc7 9b3e 5b27 af3c ff62 ac3d
00000170: b20d a3bc 6c4c e73a 9fde 85bc 028e 04bd
00000180: a3e4 8c3b c4c0 23bc d12a bc3a cc03 ce3d
00000190: 7cea 833d a7b5 8cbd bf5d 4cbc 58a6 d7bd
000001a0: b943 10be fcf7 2fbe 60ba 67be 4cfb 32be
000001b0: 27e5 86bc 9046 023e 3fc5 593e 9233 a7bc
000001c0: c20a ba3d 8072 ef3c 57ab 953c 318e 3c3e
000001d0: 6953 2b3e bbcd b43d 8f27 95be 5179 813d
000001e0: b42a 58bd 79fd 35be 8fe6 a5bd a41a 3dbe
000001f0: 87de 5abe 9ce1 23be 61e9 083d e42e af3c
00000200: d48e a83d 1ee0 08be 5b4c a7bd e20d eebd
00000210: 5361 a7bd f395 4fbb c7c4 d1bd 921a a4bb
00000220: 7b3d cb3d e5d9 073d 7ae3 1fbe e529 81bd
00000230: 72af 4cbd 876e bfbd d091 7dbd 7e1c 09be
00000240: 288b 5abd 023b 58bd 8fe1 b93d f84a 843c
00000250: 1d90 5b3d 720a 9abd c939 3cbd 352e 623d
00000260: 5d39 3e3d d742 1dbe 6ceb a53b 4040 753d
00000270: a7de ccbc fd60 b0bc 0958 47be 2508 9abd
00000280: 3690 ea3c 4ffe 883d e7f6 07be 7c48 bcbd
00000290: bc54 29bd 59ba debd 75c3 e1bd 3c83 6cbc
000002a0: 529b c4bd 374d e2bd 5266 a3bd 2ddc eebd
000002b0: bf47 ffbd 8235 19be 56ad d53c 4fa9 bd3c
000002c0: a49b 233d def9 813e 2fd6 b33b f713 d9bc
000002d0: 2b16 b4bd 6359 cfbd e24b 9ebd db39 8fbb
000002e0: c967 1bbd 1dc5 5cbd 4e64 b93d b2cf c43d
000002f0: c793 a83d 2507 5b3d a45f d4bc a247 283d
00000300: ccd8 e63c e143 3f3c 608a 6d3d e0f0 ffbd
00000310: 0f14 40be b0ef 65be d836 2fbe e514 55be
00000320: d5d0 14be c7e9 54ba e7ff 18be 1f30 30be
00000330: 7c8c c1bd 816c fbbd d60d 31be 52f9 8c3c
00000340: 244f 933d a79c d73c 3a28 0abe d04a e5bd
00000350: 5d65 fdbd 8b09 b1bd 1403 efbc c4ab 5d3d
00000360: 8348 f33d 5f35 013e f4fd fc3a ae2d b53d
00000370: 38d5 8abd e099 76bd fd6d ab3d 15f3 83bc
00000380: 7bba 38bd 342f c4bb fc7a 853d b1ba d93d
00000390: 7dea 48bc c191 033e 14d8 ad3d 5778 cdbd
000003a0: 6110 56be eaa9 efbd a062 293e 1142 c83b
000003b0: 893e 723d f165 ac3d ebd1 923d fec4 33bd
000003c0: cad4 41bd 35bd 30be 6f45 85be 4254 043e
000003d0: 498a 023e 3cc2 253e 5bfd 823c aa32 2e3d
000003e0: f4f6 a13b f08c 3cbe 08ca 80be 2265 08be
000003f0: eaf3 2a3d 1400 18bc e33c 8bbd 9159 34ba

conv_block2.2.bias f4 [20]
0.036487393 0.111193314 -0.031261057 0.1169083 0.023961352 -0.006687621 -0.039084796 0.017833132
-0.11928258 -0.010002519 -0.0102887815 -0.051981565 0.03370698 -0.010325429 0.11168628 -0.14727949
0.036422547 -0.036074903 0.039611995 0.058048714
00000000: ce73 153d 52b9 e33d 980b 00bd 9e6d ef3d
00000010: 994a c43c d523 dbbb 6117 20bd ca16 923c
00000020: 6d4a f4bd 9be1 23bc 4792 28bc 9fea 54bd
00000030: 5510 0a3d fd2b 29bc c7bb e43d 6fd0 16be
00000040: cf2f 153d 47c3 13bd 3040 223d 7dc4 6d3d

conv_block3.0.weight f4 [20, 20, 3, 3]
-0.019841706 -0.23354244 -0.14877339 -0.07675982 0.0113521665 -0.03469126 0.10116035 -0.027494587
0.15937687 0.055566028 0.04378635 0.05654095 -0.00088793697 -0.09317839 0.019695012 0.0039621694
0.06579308 0.11963765 -0.084983855 -0.051046804 0.0028109143 -0.013688692 -0.01744725 0.01011226
0.01655956 0.04690131 0.090227164 0.058590956 0.17272638 0.058752123 0.06832201 0.14943945
0.053259093 0.07634579 0.13488616 0.10981458 -0.01969852 -0.09811625 -0.024989864 0.025437033
-0.0070779654 0.10585521 0.15168048 0.121073544 0.11847872 -0.11437453 -0.050936837 0.0625317
-0.009688713 0.10729087 -0.04731066 -0.12491834 -0.016315525 -0.0132896835 -0.060701154 -0.031784516
-0.13491453 -0.0020137376 -0.00959025 -0.017927492 -0.090566784 -0.028267981 -0.017361257 0.07095575
0.12743168 0.07000182 0.12666078 0.19629474 0.17305148 0.19161566 0.22409073 0.2822561
0.036625907 0.19208398 -0.028588623 0.040733393 0.042521384 0.03377628 0.10167565 0.05068731
0.17541309 0.027390892 -0.076613605 0.010898115 0.13778661 0.19078328 0.0087634735 0.27031547
0.061562218 0.15917821 0.096926354 -0.053781096 -0.080898754 0.14120576 0.05708257 -0.019358972
-0.008323514 0.0461674 0.12319617 -0.014667644 0.037136704 -0.012299716 -0.034793086 -0.0034726344
0.07656823 -0.0008424891 -0.0070848064 0.10542855 0.0029810003 0.00400228 -0.039804626 0.15470535
0.15281159 0.269358 0.05971753 0.054733608 0.28388333 -0.21069996 -0.17532264 -0.05323982
-0.11545662 -0.036395855 -0.03915043 0.15309422 0.092848375 0.033347 0.12062605 -0.03290586
0.1582393 -0.037591625 -0.07756209 0.041108288 0.005816948 -0.0054067923 -0.05932852 -0.13013136
-0.10844774 -0.063434385 -0.015480749 0.09150735 0.079480164 0.039866474 0.082971275 0.23764569
-0.13175002 -0.17119582 -0.04125018 0.020513142 0.036383852 0.10453624 0.086417295 0.11353767
-0.015048781 -0.1692364 -0.12895368 -0.16333696 -0.00045486228 0.11317806 -0.05037139 0.15886006
0.19433402 0.19764355 0.13322575 0.20226681 -0.05402128 0.16096964 0.12172442 0.04418116
0.03944291 0.009961956 0.089896925 -0.080561854 -0.098644085 -0.100303516 0.043545756 0.18509023
0.1203527 0.114136696 0.12055594 0.15150411 -0.15629883 -0.13664109 0.030434864 0.09145756
0.20139292 0.12411758 0.08209617 0.020345127 0.09263571 -0.0052421233 -0.29746026 -0.15801054
0.12982765 0.04898691 0.09140165 0.34393775 0.26154035 0.12013684 0.07448379 0.16908273
0.20732605 -0.042244796 0.10336078 -0.0667622 -0.34066024 -0.081360854 -0.25387952 0.25248787
0.28120118 0.17578857 -0.018717168 -0.1564492 -0.11152552 0.07222604 0.14994814 0.026974741
-0.0012805547 -0.06545369 -0.0037268344 0.22785388 0.14928293 0.05535328 0.087436594 0.16381612
0.04757212 0.06954612 0.18335108 -0.03862367 -0.15374225 -0.08902175 -0.12938422 0.020026317
-0.04690304 -0.07574964 -0.06891418 -0.03439544 0.014579322 -0.18524261 -0.19421825 -0.07262706
0.008750963 0.15839693 0.065565094 0.022301408 -0.08576091 -0.007039235 0.26235616 0.015349814
0.015375739 0.07796232 0.13056235 0.065751836 -0.16502297 -0.10917415 -0.1320276 0.05864051
00000000: 138b a2bc c025 6fbe 0d58 18be 4134 9dbd
00000010: 70fe 393c 6c18 0ebd 282d cf3d 543c e1bc
00000020: b133 233e 3499 633d 5159 333d 7c97 673d
00000030: 71c4 68ba 50d4 bebd 6f57 a13c 16d5 813b
00000040: 86be 863d 9604 f53d 040c aebd 7416 51bd
00000050: 5137 383b 8946 60bc 89ed 8ebc e4ad 253c
00000060: eaa7 873c 971b 403d 05c9 b83d 12fd 6f3d
00000070: 2fdf 303e 11a6 703d 69ec 8b3d a806 193e
00000080: 3526 5a3d 2e5b 9c3d 991f 0a3e 77e6 e03d
00000090: ca5e a1bc 2cf1 c8bd 8bb7 ccbc 5361 d03c
000000a0: 47ee e7bb 9eca d83d 2152 1b3e 68f5 f73d
000000b0: f9a4 f23d 323d eabd 25a3 50bd 9f10 803d
000000c0: 68bd 1ebc 51bb db3d d3c8 41bd 30d5 ffbd
000000d0: 23a8 85bc f9bc 59bc c6a1 78bd 7b30 02bd
000000e0: 0927 0abe e9f8 03bb 6d20 1dbc addc 92bc
000000f0: 147b b9bd 4192 e7bc 3239 8ebc 4051 913d
00000100: 737d 023e 1d5d 8f3d 5db3 013e 7d01 493e
00000110: 6834 313e e536 443e 0a78 653e df83 903e
00000120: 0c05 163d aab1 443e b032 eabc 0fd8 263d
00000130: e72a 2e3d ff58 0a3d 533b d03d 7f9d 4f3d
00000140: 7d9f 333e dd62 e03c 98e7 9cbd 028e 323c
00000150: ef17 0d3e b15c 433e ac94 0f3c ca66 8a3e
00000160: aa28 7c3d 9dff 223e 5381 c63d 9149 5cbd
00000170: 3fae a5bd 3e98 103e 6acf 693d b596 9ebc
00000180: 595f 08bc 071a 3d3d 464e fc3d 8f50 70bc
00000190: a81c 183d bf84 49bc 3283 0ebd 2395 63bb
000001a0: cecf 9c3d 7dda 5cba aa27 e8bb ecea d73d
000001b0: e35c 433b 8f25 833b 2d0a 23bd 146b 1e3e
000001c0: a47a 1c3e 4be9 893e 5e9a 743d 5930 603d
000001d0: 2859 913e bbc1 57be c787 33be ff11 5abd
000001e0: 8574 ecbd d213 15bd 345c 20bd bbc4 1c3e
000001f0: 4a27 be3d dd96 083d ca0a f73d 4cc8 06bd
00000200: 7c09 223e adf9 19bd dfd8 9ebd 2a61 283d
00000210: 199c be3b 762b b1bb 7602 73bd 2841 05be
00000220: d919 debd e3e9 81bd f8a2 7dbc 3568 bb3d
00000230: 7fc6 a23d 074b 233d d8ec a93d 6459 733e
00000240: 7ae9 06be f54d 2fbe f3f5 28bd 2d0b a83c
00000250: 3c07 153d 1917 d63d 8dfb b03d 7086 e83d
00000260: 2a8f 76bc 4f4c 2dbe 6f0c 04be ce41 27be
00000270: 957a eeb9 e6c9 e73d 3b52 4ebd 36ac 223e
00000280: 7fff 463e 1263 4a3e 556c 083e 081f 4f3e
00000290: 6b45 5dbd 3ad5 243e a74a f93d 4ef7 343d
000002a0: e48e 213d 7937 233c e11b b83d 9dfd a4bd
000002b0: e905 cabd ee6b cdbd 095d 323d 4b88 3d3e
000002c0: 7a7b f63d 80c0 e93d 08e6 f63d e523 1b3e
000002d0: cd0c 20be a4eb 0bbe 8952 f93c 1a4e bb3d
000002e0: f239 4e3e 5c31 fe3d 0922 a83d d3aa a63c
000002f0: cbb7 bd3d 1ec6 abbb b64c 98be 84cd 21be
00000300: 8af1 043e 80a6 483d ca30 bb3d 9c18 b03e
00000310: 9ee8 853e 4e0a f63d f58a 983d 0624 2d3e
00000320: 484d 543e e108 2dbd d1ae d33d 9fba 88bd
00000330: 056b aebe 85a0 a6bd 7ffc 81be 1746 813e
00000340: 9af9 8f3e eb01 343e bf54 99bc 3834 20be
00000350: 7e67 e4bd 3feb 933d 018c 193e 22fa dc3c
00000360: 49d8 a7ba 960c 86bd e83d 74bb 8752 693e
00000370: a0dd 183e 1fba 623d f511 b33d 6abf 273e
00000380: fcda 423d 326e 8e3d 63c0 3b3e da33 1ebd
00000390: 9c6e 1dbe 0951 b6bd 4c7d 04be 3b0e a43c
000003a0: 671d 40bd a122 9bbd e122 8dbd 3ce2 0cbd
000003b0: 1cde 6e3c 3db0 3dbe 26e1 46be 7fbd 94bd
000003c0: 3360 0f3c ce32 223e fe46 863d 71b1 b63c
000003d0: 6aa3 afbd 62a9 e6bb 8c53 863e c97d 7b3c
000003e0: 86ea 7b3c b5aa 9f3d 23b2 053e e6a8 863d
000003f0: c8fb 28be b296 dfbd 3e32 07be 0831 703d

conv_block3.0.bias f4 [20]
0.16690294 -0.0107191 -0.007164188 -0.123795524 0.06369779 -0.1877397 -0.121645324 -0.08002079
-0.3113384 -0.10515728 -0.025212293 0.044994507 -0.14524977 -0.066855334 -0.11206792 0.042149935
-0.053298406 -0.1358709 -0.26689282 -0.012130727
00000000: 9be8 2a3e 2a9f 2fbc 91c1 eabb 8288 fdbd
00000010: fd73 823d d63e 40be 2f21 f9bd f1e1 a3bd
00000020: bf67 9fbe b35c d7bd 038a cebc 294c 383d
00000030: 5bbc 14be 73eb 88bd de83 e5bd 69a5 2c3d
00000040: 6e4f 5abd be21 0bbe 2da6 88be f5bf 46bc

conv_block3.2.weight f4 [20, 20, 3, 3]
-0.0073679965 0.08888812 0.0107404115 -0.041029435 -0.18037096 -0.07899178 -0.11355566 0.007039361
-0.04671628 0.011772165 0.19255611 0.1690057 -0.019146744 -0.051506016 0.031949624 -0.3835575
-0.33644983 -0.28944445 0.022822522 0.10743859 -0.08779004 0.13617326 0.084508635 -0.032987155
0.033440795 0.13473594 -0.054823782 0.06707681 -0.11189978 0.14171003 0.037152696 0.097862616
0.23823787 -0.10677087 -0.06350111 0.03501583 -0.04585986 -0.10542891 -0.10311804 -0.14532961
-0.043896943 -0.03773033 0.008889343 0.1053988 -0.11625493 -0.18791765 -0.32371336 -0.061157826
-0.16722962 -0.09290143 -0.087552585 -0.19211607 -0.08897168 0.049564406 -0.12928885 -0.12312912
-0.12015294 -0.17863582 -0.024823217 0.000992248 -0.032721635 -0.14156285 -0.084832214 0.106287554
-0.086571306 -0.09559866 0.043657973 -0.12590335 -0.26252452 0.11856802 0.0027888862 0.18456401
-0.34073606 -0.18224223 -0.1484102 0.108464055 0.12927909 0.0008974315 0.032133657 0.07529159
0.14896716 -0.06199353 -0.091918066 0.05232007 -0.036607165 0.1231378 0.03976451 -0.052827902
-0.082146265 0.06306111 0.06040523 0.062633745 -0.17446691 0.019258594 -0.0745597 -0.19475986
0.08931554 0.10085362 0.032290615 -0.101417676 -0.009828448 -0.08517773 -0.08399788 -0.10072297
0.08362191 -0.06843737 0.031097641 0.017656226 -0.11645313 -0.0807784 -0.1372304 0.04437739
-0.0056189713 -0.06990424 0.12955831 0.053653046 0.09110133 -0.11432678 -0.08704366 -0.0423216
0.025802093 -0.042867605 -0.025568187 -0.0481565 0.11257238 0.06626039 -0.07265385 -0.23969021
-0.10012589 -0.21013023 0.056141473 0.09271858 -0.09329505 -0.020500343 0.041855983 -0.112211406
0.12321395 0.153134 0.0041065593 0.10593083 0.2704849 -0.18808079 0.15524432 0.10129918
-0.021972101 -0.11380169 -0.16363873 -0.2102712 -0.10847622 0.02271878 -0.24336715 -0.23890229
-0.02070748 -0.0193403 0.11351559 0.06497444 0.2026505 0.30578986 0.3186565 0.2761899
0.14445104 0.2606125 0.041201815 -0.1436361 0.06963305 -0.15658082 -0.14583352 -0.12272599
0.06285836 -0.13151011 0.04445224 0.07575799 0.1309266 0.1811902 -0.06834505 0.16763929
0.27447382 -0.08686566 0.10255256 0.19912028 -0.034217767 0.06796075 -0.06118713 0.042333677
0.03036757 0.1301579 -0.069128886 0.0011188353 -0.07943858 -0.46638775 -0.30066133 -0.22833905
-0.018492881 0.10153738 -0.0047592944 -0.00022885976 -0.12960501 0.030638637 0.3384652 0.22332948
0.3426586 -0.020561188 0.06435256 -0.1535725 -0.11271987 -0.15343449 -0.27561352 0.059154157
0.11552195 -0.060185138 0.015535178 0.03574153 0.06910719 -0.07113 0.04787341 -0.002453252
0.18773898 -0.045111705 0.016142575 -0.09629437 -0.18416728 -0.10753204 -0.027668318 -0.011913496
-0.01924188 -0.16274168 -0.11416376 -0.055851307 0.12392154 -0.033606466 0.031218288 -0.17763369
-0.290379 -0.16151753 0.121408 0.28287953 0.09526279 -0.11007925 -0.17039984 -0.06889033
0.015120144 0.15352169 0.018438939 -0.06374177 0.15262896 -0.0794207 0.14524305 0.058620494
0.015806766 0.17517783 -0.008748448 -0.20181279 0.061404116 0.0002688494 -0.06167613 -0.15998326
00000000: 3c6f f1bb fa0a b63d 8df8 2f3c 7b0e 28bd
00000010: 2ab3 38be 71c6 a1bd df8f e8bd 71aa e63b
00000020: 9259 3fbd 0ae0 403c 6e2d 453e d50f 2d3e
00000030: a2d9 9cbc f9f7 52bd 9cdd 023d a661 c4be
00000040: 2743 acbe 1032 94be 4cf6 ba3c c308 dc3d
00000050: 44cb b3bd 0171 0b3e dd12 ad3d 8a1d 07bd
00000060: 37f9 083d 38f8 093e e78e 60bd 915f 893d
00000070: b62b e5bd 6f1c 113e 6d2d 183d 326c c83d
00000080: a1f4 733e b0aa dabd df0c 82bd c26c 0f3d
00000090: 8cd7 3bbd 1deb d7bd 8d2f d3bd 49d1 14be
000000a0: 48cd 33bd 1e8b 1abd 9ba4 113c 53db d73d
000000b0: 1117 eebd 7c6d 40be c2bd a5be a180 7abd
000000c0: 3e3e 2bbe 1b43 bebd c54e b3bd 13ba 44be
000000d0: c936 b6bd 0c04 4b3d 4c64 04be 1f2b fcbd
000000e0: bf12 f6bd 4fec 36be 0f5a cbbc 510e 823a
000000f0: 1f07 06bd daf5 10be 83bc adbd 4aad d93d
00000100: 4c4c b1bd 3bc9 c3bd b4d2 323d cfec 00be
00000110: 9d69 86be cad3 f23d bfc5 363b 59fe 3c3e
00000120: f574 aebe b59d 3abe d8f8 17be 6722 de3d
00000130: bd61 043e 9c41 6b3a 959e 033d 7a32 9a3d
00000140: d98a 183e edec 7dbd 8a3f bcbd 924d 563d
00000150: 65f1 15bd ac2f fc3d 1ce0 223d 1262 58bd
00000160: 4d3c a8bd 2f26 813d 796b 773d 1f46 803d
00000170: 74a7 32be 33c4 9d3c c2b2 98bd 216f 47be
00000180: 11eb b63d 588c ce3d 2a43 043d 12b4 cfbd
00000190: 8007 21bc a971 aebd 1507 acbd d847 cebd
000001a0: f741 ab3d e428 8cbd 7bc0 fe3c caa3 903c
000001b0: fb7e eebd 256f a5bd 2086 0cbe 11c5 353d
000001c0: 591f b8bb f429 8fbd efaa 043e 4cc3 5b3d
000001d0: 5693 ba3d 2924 eabd f243 b2bd 6a59 2dbd
000001e0: e95e d33c f195 2fbd 6074 d1bc c03f 45bd
000001f0: 598c e63d 87b3 873d 8bcb 94bd 5a71 75be
00000200: cd0e cdbd 612c 57be 9af4 653d 3de3 bd3d
00000210: 7a11 bfbd 56f0 a7bc 2e71 2b3d 18cf e5bd
00000220: 9857 fc3d 29cf 1c3e 5190 863b 43f2 d83d
00000230: ff7c 8a3e 4098 40be 5ef8 1e3e f275 cf3d
00000240: d6fe b3bc dc10 e9bd e990 27be 5551 57be
00000250: c828 debd bc1c ba3c 3d35 79be cda2 74be
00000260: bca2 a9bc 8c6f 9ebc dd7a e83d 5211 853d
00000270: 9d83 4f3e 7d90 9c3e f226 a33e c368 8d3e
00000280: f9ea 133e 006f 853e 3cc3 283d 5815 13be
00000290: c69b 8e3d b956 20be 6255 15be c457 fbbd
000002a0: e2bb 803d 96aa 06be 8d13 363d 0127 9b3d
000002b0: 9f11 063e ec89 393e 7df8 8bbd a2a9 2b3e
000002c0: d587 8c3e a0e6 b1bd 1407 d23d 30e6 4b3e
000002d0: ee27 0cbd 012f 8b3d 5b9f 7abd 1466 2d3d
000002e0: 69c5 f83c 1d48 053e 7293 8dbd e2a5 923a
000002f0: b2b0 a2bd 60ca eebe 48f0 99be b6d1 69be
00000300: 627e 97bc d4f2 cf3d dbf3 9bbb 13fa 6fb9
00000310: 2db7 04be e1fd fa3c 504b ad3e 7cb0 643e
00000320: f370 af3e f06f a8bc 46cb 833d 1c42 1dbe
00000330: add9 e6bd ee1d 1dbe 371d 8dbe a14b 723d
00000340: c696 ec3d b184 76bd 4287 7e3c b665 123d
00000350: 1288 8d3d 9bac 91bd e916 443d bdc6 20bb
00000360: a63e 403e 0dc7 38bd 6f3d 843c fc35 c5bd
00000370: 5996 3cbe c239 dcbd aba8 e2bc d330 43bc
00000380: 26a1 9dbc c1a5 26be b0ce e9bd 57c4 64bd
00000390: 94ca fd3d efa6 09bd 7fbd ff3c 9be5 35be
000003a0: 8eac 94be da64 25be c2a4 f83d 96d5 903e
000003b0: 2319 c33d 3b71 e1bd 4c7d 2ebe 6016 8dbd
000003c0: 7bba 773c ca34 1d3e 420d 973c 0c8b 82bd
000003d0: c44a 1c3e 52a7 a2bd 98ba 143e 0b1c 703d
000003e0: 317d 813c d161 333e a755 0fbc 03a8 4ebe
000003f0: e282 7b3d 5bf4 8c39 1ca0 7cbd a7d2 23be

conv_block3.2.bias f4 [20]
0.002411931 -0.086726435 -0.095865004 -0.03714212 -0.038333975 -0.05624671 -0.045756225 -0.046056684
-0.10478536 0.027897136 -0.029655986 -0.12593904 -0.100221455 -0.06835418 -0.03748318 -0.069245145
-0.038795438 -0.10530765 -0.034492735 -0.050654568
00000000: 7d11 1e3b a19d b1bd df54 c4bd 5622 18bd
00000010: 1604 1dbd f362 66bd e16a 3bbd efa5 3cbd
00000020: b599 d6bd 8988 e43c 1cf1 f2bc 2af6 00be
00000030: e840 cdbd 47fd 8bbd f787 19bd 66d0 8dbd
00000040: f7e7 1ebd 8aab d7bd 4148 0dbd 2a7b 4fbd

flatten_layer.1.weight f4 [3, 1280]
0.08695315 -0.04798707 0.08664768 -0.15215652 -0.20837449 0.068291105 0.1547366 -0.029575871
-0.10699778 -0.00494761 0.045682818 -0.12621687 -0.03814092 0.004547501 -0.22838148 0.085126884
-0.18616267 0.15519054 0.0031660972 0.02809699 0.012520685 -0.029148592 0.15871559 0.15576242
0.027394164 0.040905043 -0.21281166 0.014084838 -0.18967105 -0.0038178093 -0.09690178 0.13518523
0.033298973 0.21666878 -0.16652295 -0.037384406 0.008553963 -0.050777562 0.047930457 0.18395303
-0.041090626 0.048815727 -0.0072345454 0.014747413 -0.1840042 0.05080864 -0.08012359 0.064621575
0.07629169 -0.1215747 -0.055257145 -0.027263183 0.017520491 -0.017350744 -0.07147099 0.17322563
0.0934083 -0.12159501 -0.171601 -0.11504809 -0.01572037 -0.09048872 -0.031926345 0.0504238
0.34612843 -0.11337963 -0.025880195 0.035098042 -0.019364605 -0.09527861 0.052499253 0.13982394
-0.1966503 -0.11941968 0.119952664 0.28157958 0.47541595 0.10145233 -0.02348053 0.084492706
-0.0017693916 -0.16414222 -0.13721357 -0.14952849 0.002727018 -0.09014209 0.0008351567 0.15532973
-0.043815948 -0.02690376 0.0029379076 0.1518716 0.07017072 -0.14869991 0.07992395 0.07587769
-0.21564734 -0.14516754 0.054841448 -0.027000012 0.008189097 0.07403674 -0.16766353 -0.05514121
-0.13524963 -0.19351338 -0.12609398 -0.021643668 0.15236679 0.0530683 -0.08058573 -0.076195955
0.05047627 0.14113568 0.05468421 0.16783893 0.07547339 0.054428924 0.3508083 0.16139662
-0.14295031 -0.19558981 -0.022471556 0.05308838 -0.01744772 -0.0104843145 -0.01649075 -0.10288323
-0.02349859 -0.18549307 -0.15340479 -0.12464113 -0.0831706 -0.2659956 -0.023116278 -0.030236935
-0.11551335 -0.07649619 0.0604053 -0.016661111 -0.09795866 0.019469067 -0.06846507 -0.033232328
-0.02905191 0.0687649 -0.013979081 -0.046940096 -0.041157834 0.032919995 -0.06414736 -0.007055844
0.20742482 0.16671975 0.1980751 0.055894833 0.096090555 0.04925228 0.120456465 0.21673813
0.07749274 0.07424483 0.24653159 -0.100822076 0.0065937266 0.07479398 0.029572017 0.034045596
0.0130898645 0.08205902 -0.044837534 -0.08898018 -0.2704809 -0.113866486 -0.1286428 0.11841153
0.021394305 -0.027125057 -0.021403069 -0.06768161 -0.12674075 -0.0033809533 -0.048708122 0.08759732
-0.094525546 -0.10220045 -0.123815954 -0.212682 -0.018645613 -0.09871206 -0.1383365 0.021814683
-0.20858419 0.16361575 0.10769155 -0.05707527 0.10335579 0.06974659 0.011177933 -0.20713073
0.04947741 0.14713398 -0.035617646 0.21251272 0.07039772 0.012219896 0.0928512 -0.04276668
-0.23620106 0.14361557 -0.018237531 -0.05745226 0.20578405 0.059258923 0.07217355 -0.14549069
-0.04708245 0.008357242 -0.05319761 -0.09583307 0.028353458 0.013694163 -0.021637077 -0.08415083
0.14234953 -0.04127421 0.0567094 0.0008913412 0.054174136 0.18567276 0.107576735 0.14821668
-0.14703737 -0.066806406 0.19689143 0.011182531 0.09464807 0.091657974 0.073469706 -0.15207133
-0.16511355 -0.1097534 0.07733243 -0.018081887 0.011056306 0.14344025 0.004449232 -0.015604005
-0.09659303 -0.12036532 -0.22345686 -0.19325814 -0.20513114 -0.01581181 -0.069320306 -0.2212167
00000000: 7e14 b23d 178e 44bd 5774 b13d ebce 1bbe
00000010: 1f60 55be 35dc 8b3d 4573 1e3e 1949 f2bc
00000020: a721 dbbd 901f a2bb e81d 3b3d ff3e 01be
00000030: a739 1cbd 3403 953b d6dc 69be 0157 ae3d
00000040: 6da1 3ebe 45ea 1e3e 4c7e 4f3b a92b e63c
00000050: 8f23 4d3c 07c9 eebc 5786 223e 2f80 1f3e
00000060: ba69 e03c 0c8c 273d 4deb 59be 18c4 663c
00000070: 2139 42be 3634 7abb 7174 c6bd ff6d 0a3e
00000080: 8164 083d 6cde 5d3e fe84 2abe 6420 19bd
00000090: ec25 0c3c 22fc 4fbd ba52 443d 2f5e 3c3e
000000a0: a54e 28bd 00f3 473d c40f edbb 229f 713c
000000b0: 996b 3cbe b81c 503d d617 a4bd 5158 843d
000000c0: d13e 9c3d 28fc f8bd 5155 62bd 0a57 dfbc
000000d0: 2287 8f3c 2623 8ebc 625f 92bd 0f62 313e
000000e0: da4c bf3d ce06 f9bd 2cb8 2fbe 559e ebbd
000000f0: 01c8 80bc 2652 b9bd 33c5 02bd 3089 4e3d
00000100: bf37 b13e 9433 e8bd b402 d4bc f7c2 0f3d
00000110: 85a2 9ebc 6f21 c3bd 7509 573d 022e 0f3e
00000120: b25e 49be 4e92 f4bd bea9 f53d 332b 903e
00000130: b869 f33e 3dc6 cf3d 3e5a c0bc 830a ad3d
00000140: eeea e7ba e614 28be b781 0cbe ff1d 19be
00000150: c5b7 323b 6b9c b8bd 6bee 5a3a c20e 1f3e
00000160: 5a78 33bd 4665 dcbc e989 403b 3b84 1b3e
00000170: abb5 8f3d ca44 18be 2baf a33d c365 9b3d
00000180: a8d2 5cbe cda6 14be 6da1 603d 212f ddbc
00000190: 902b 063c 93a0 973d fdaf 2bbe c0db 61bd
000001a0: e17e 0abe 5f28 46be c81e 01be 104e b1bc
000001b0: 0a06 1c3e 255e 593d 220a a5bd a00c 9cbd
000001c0: 35c0 4e3d df85 103e 8dfc 5f3d f8dd 2b3e
000001d0: cb91 9a3d ddf0 5e3d 259d b33e 2845 253e
000001e0: 9161 12be b248 48be 4516 b8bc 3373 593d
000001f0: 85ee 8ebc 67c6 2bbc 9c17 87bc 71b4 d2bd
00000200: 1d80 c0bc e5f1 3dbe 2516 1dbe d943 ffbd
00000210: 5955 aabd 9330 88be 595e bdbc 73b3 f7bc
00000220: 4392 ecbd 09aa 9cbd 8c6b 773d e27c 88bc
00000230: 8d9e c8bd 987d 9f3c 6a37 8cbd 9f1e 08bd
00000240: 45fe edbc 9dd4 8c3d 8408 65bc 4244 40bd
00000250: 1e95 28bd 1ed7 063d b15f 83bd b634 e7bb
00000260: 2c67 543e 95b8 2a3e 33d4 4a3e fbf1 643d
00000270: 20cb c43d c2bc 493d e1b1 f63d 9af0 5d3e
00000280: 83b4 9e3d ac0d 983d c772 7c3e ce7b cebd
00000290: 3010 d83b 962d 993d 0441 f23c 6573 0b3d
000002a0: df76 563c 8f0e a83d 90a7 37bd 3e3b b6bd
000002b0: 797c 8abe d532 e9bd f0ba 03be bf81 f23d
000002c0: 1c43 af3c 5e35 debc 7d55 afbc a89c 8abd
000002d0: 54c8 01be fc92 5dbb 2b82 47bd 3966 b33d
000002e0: 9c96 c1bd 784e d1bd 3893 fdbd 4fc9 59be
000002f0: afbe 98bc 8c29 cabd 15a8 0dbe b5b4 b23c
00000300: 1897 55be e38a 273e 638d dc3d c2c7 69bd
00000310: 33ac d33d 4dd7 8e3d a623 373c 141a 54be
00000320: d3a8 4a3d 4aaa 163e cfe3 11bd ef9c 593e
00000330: ae2c 903d f535 483c c528 be3d 1d2c 2fbd
00000340: b1de 71be f60f 133e e066 95bc 1053 6bbd
00000350: 0eb9 523e 7cb9 723d bacf 933d 83fb 14be
00000360: 87d9 40bd d0ec 083c bde5 59bd 2144 c4bd
00000370: 8345 e83c 7c5d 603c 3d40 b1bc 4557 acbd
00000380: 13c4 113e 250f 29bd 1e48 683d e5a8 693a
00000390: b3e5 5d3d 0021 3e3e 3151 dc3d 1dc6 173e
000003a0: f790 16be ccd1 88bd e89d 493e ef36 373c
000003b0: d9d6 c13d 2db7 bb3d 4977 963d 96b8 1bbe
000003c0: 8713 29be 64c6 e0bd 7760 9e3d 7720 94bc
000003d0: 8225 353c 00e2 123e ddca 913b f1a7 7fbc
000003e0: 91d2 c5bd 1882 f6bd e0d1 64be 76e5 45be
000003f0: e60d 52be c587 81bc cef7 8dbd a186 62be

flatten_layer.1.bias f4 [3]
-0.017940223 -0.09082755 0.051439945
00000000: 60f7 92bc cb03 babd b1b2 523d
